src/nomeer_robot_ros2/src/mono_depth_onnx/models/midas_v21_small.onnx (onnx, 463262 bytes, 19 tensors)

scratch.refinenet2.out_conv.bias f4 [64]
-0.08707672 -0.18410738 0.12175112 0.028774094 0.40693018 -0.16981217 -0.06922036 0.18433483
0.05035475 0.16563776 0.16494395 0.011005545 -0.08594489 -0.0056243166 -0.077153 -0.014557837
0.06985515 -0.17367366 -0.025946006 0.09092334 0.04102481 -0.15836348 0.15647444 -0.17609018
-0.15910767 0.13976789 0.03246439 -0.18169299 -0.15971398 0.23608944 -0.3926006 -0.02826512
-0.1555986 -0.03144724 -0.07277584 -0.26943487 -0.0449336 0.011212723 0.10382898 -0.2728228
0.16108829 -0.06342882 -0.029161217 0.3691392 -0.010511964 0.088100195 -0.04272352 0.12699218
-0.00714882 0.088587336 -0.32880342 0.1286879 0.028334126 0.045923695 0.021479748 0.098441005
-0.12261037 0.043751452 -0.13412844 0.061936617 -0.090048306 0.055274982 0.11608185 -0.16488722
00000000: 4855 b2bd a586 3cbe a758 f93d a6b7 eb3c
00000010: 2759 d03e 3ee3 2dbe 67c3 8dbd 45c2 3c3e
00000020: c840 4e3d f29c 293e 11e7 283e 9a50 343c
00000030: e003 b0bd 304c b8bb 6402 9ebd fe83 6ebc
00000040: 3810 8f3d 82d7 31be b88c d4bc 0436 ba3d
00000050: a209 283d 092a 22be d63a 203e fc50 34be
00000060: 1fed 22be 501f 0f3e 61f9 043d ba0d 3abe
00000070: 108c 23be 6ec1 713e f202 c9be 418c e7bc
00000080: 3d55 1fbe d2ce 00bd 800b 95bd 5ef3 89be
00000090: 4b0c 38bd 92b5 373c 4aa4 d43d 6eaf 8bbe
000000a0: 54f4 243e f8e6 81bd 81e3 eebc d0ff bc3e
000000b0: 5f3a 2cbc e06d b43d dcfe 2ebd 3d0a 023e
000000c0: a640 eabb 476d b53d ec58 a8be c3c6 033e
000000d0: f81c e83c 7c1a 3c3d 4cf6 af3c 709b c93d
000000e0: 251b fbbd b934 333d f758 09be 40b1 7d3d
000000f0: 3f6b b8bd 0568 623d 52bc ed3d 32d8 28be

scratch.refinenet1.out_conv.bias f4 [64]
-0.033684507 0.22285224 0.14156702 -0.1471609 -0.09222024 0.17724448 0.017906616 0.18962632
0.07225916 0.05748574 -0.03039356 0.12888043 0.180989 -0.061393216 0.03206935 -0.02994943
0.31170404 0.2664325 -0.31271216 -0.22701328 0.11308054 -0.15611768 0.43555805 0.2108767
0.1724656 0.5116469 -0.345358 0.11760853 0.22583924 0.046338286 0.12804848 -0.10926989
-0.13635282 -0.06690774 -0.3185326 0.09828888 -0.068568245 0.17459011 0.1346161 0.18288589
-0.16088471 -0.19890635 0.0834856 0.11987444 0.17326105 -0.2683832 -0.02452115 0.079278454
-0.07312679 0.0115918955 -0.35672575 0.048419133 0.016822964 0.011903609 0.1569852 -0.13673115
0.0445615 -0.08426874 -0.13311508 0.119966365 -0.28130957 0.5287546 -0.20225075 -0.10645158
00000000: c4f8 09bd 6133 643e f2f6 103e 59b1 16be
00000010: f7dd bcbd 947f 353e e5b0 923c 672d 423e
00000020: 9cfc 933d 2b76 6b3d eafb f8bc 3bf9 033e
00000030: 2e55 393e 7477 7bbd 275b 033d 8258 f5bc
00000040: ac97 9f3e d769 883e cf1b a0be 2b76 68be
00000050: c596 e73d 50dd 1fbe 7701 df3e 10f0 573e
00000060: d29a 303e 4bfb 023f c4d2 b0be bedc f03d
00000070: 6742 673e 37cd 3d3d 241f 033e e4c8 dfbd
00000080: 13a0 0bbe ed06 89bd b416 a3be ae4b c93d
00000090: 826d 8cbd c0c7 323e ced8 093e 7046 3b3e
000000a0: f6be 24be 1bae 4bbe 80fa aa3d bb80 f53d
000000b0: 586b 313e 8669 89be 94e0 c8bc be5c a23d
000000c0: 80c3 95bd efeb 3d3c c2a4 b6be 2453 463d
000000d0: 50d0 893c 5b07 433c bac0 203e 4003 0cbe
000000e0: 1f86 363d 1795 acbd 524f 08be edb0 f53d
000000f0: cf07 90be 765c 073f d21a 4fbe 4903 dabd

scratch.refinenet1.resConfUnit1.conv1.bias f4 [64]
0.0056702616 0.13235348 0.010645337 0.1599374 0.04364159 0.0338699 0.18082789 0.013838052
0.053605616 0.23600829 0.09601079 -0.022182897 0.018388921 0.16435277 -0.0049314024 -0.027593022
0.059683852 -0.02350696 0.107774764 0.07073703 -0.034810122 -0.033071063 0.035183676 -0.00066071923
0.023287078 -0.016685285 -0.016501034 0.041167323 0.06916452 0.16193832 -0.031648256 0.10086343
0.08644329 0.07501063 -0.041426826 0.007467603 0.072850056 -0.020467442 -0.005596184 0.06825321
0.18457288 0.02496352 -0.026035216 0.10271369 0.06461851 0.1473946 -0.010364544 0.043090053
0.026186753 0.021001926 0.04231255 0.028794667 -0.020864943 0.16049014 0.17136113 0.020954663
-0.027116207 0.08875153 -0.021571212 0.041312933 0.0438038 0.2888121 0.04203104 0.054541025
00000000: 9acd b93b ac87 073e c869 2e3c a1c6 233e
00000010: 86c1 323d 2abb 0a3d f22a 393e ffb8 623c
00000020: 9091 5b3d 28ac 713e 4ea1 c43d e8b8 b5bc
00000030: 5da4 963c 184c 283e 9a97 a1bb c30a e2bc
00000040: 0e77 743d ab91 c0bc 04b9 dc3d 93de 903d
00000050: 0f95 0ebd 8675 07bd c21c 103d 1e34 2dba
00000060: 8bc4 be3c 94af 88bc 2d2d 87bc 119f 283d
00000070: 21a6 8d3d 29d3 253e 9aa1 01bd 7c91 ce3d
00000080: 2e09 b13d 2c9f 993d 2daf 29bd cbb2 f43b
00000090: 6932 953d 56ab a7bc 3260 b7bb 57c8 8b3d
000000a0: ac00 3d3e 4c80 cc3c ce47 d5bc 8e5b d23d
000000b0: b656 843d 9cee 163e 0cd0 29bc 327f 303d
000000c0: 9a85 d63c 3b0c ac3c ed4f 2d3d cbe2 eb3c
000000d0: f5ec aabc 8757 243e 4b79 2f3e 1da9 ab3c
000000e0: cf22 debc 5dc3 b53d 1cb6 b0bc c037 293d
000000f0: 9d6b 333d 2edf 933e bd28 2c3d 6966 5f3d

scratch.refinenet1.resConfUnit1.conv2.bias f4 [64]
-0.12667462 -0.24662772 0.17043507 -0.022118073 0.35771602 -0.23152813 -0.053024597 0.08630811
-0.025016261 0.08575125 0.10236382 -0.06826078 -0.08322516 -0.037589572 -0.12600437 0.025516305
0.0033791359 -0.18237668 0.033279557 0.05008763 0.04482155 -0.16165698 0.17158705 -0.1404282
-0.07374308 0.07490401 -0.006278881 -0.14576565 -0.075338185 0.24508312 -0.32407343 -0.08235682
-0.186448 -0.028606726 -0.037438244 -0.2263345 0.03475618 -0.050186418 0.06450596 -0.25362659
0.16495757 -0.07041122 -0.055810805 0.26142803 0.048148014 0.08014679 0.0012534256 0.16249822
0.0064807534 -0.016988881 -0.34327888 0.09058405 -0.07310391 0.0013359188 0.025307743 0.12414439
-0.15722224 -0.026435558 -0.20956646 0.08078816 0.0012906855 0.06874872 0.096818306 -0.2089356
00000000: feb6 01be fa8b 7cbe 8886 2e3e f630 b5bc
00000010: 8e26 b73e b615 6dbe 5230 59bd 4ec2 b03d
00000020: e7ee ccbc 5a9e af3d 1fa4 d13d 4fcc 8bbd
00000030: f471 aabd 86f7 19bd 4a07 01be 9207 d13c
00000040: 7e74 5d3b f4c0 3abe 2550 083d b028 4d3d
00000050: cd96 373d 6889 25be 84b4 2f3e 69cc 0fbe
00000060: 9d06 97bd 4667 993d 12bf cdbb 9743 15be
00000070: e84a 9abd 12f7 7a3e f4ec a5be b1aa a8bd
00000080: 39ec 3ebe a758 eabc d858 19bd 3bc4 67be
00000090: 7f5c 0e3d 4690 4dbd b31b 843d 58db 81be
000000a0: a3ea 283e c233 90bd df99 64bd e5d9 853e
000000b0: da36 453d 0024 a43d fc49 a43a ef65 263e
000000c0: 805c d43b 442c 8bbc 40c2 afbe 2184 b93d
000000d0: 81b7 95bd ff19 af3a 2f52 cf3c 6a3f fe3d
000000e0: defe 20be 628f d8bc 9798 56be 4374 a53d
000000f0: 382c a93a 21cc 8c3d ad48 c63d 37f3 55be

scratch.refinenet1.resConfUnit2.conv1.bias f4 [64]
-0.03683369 0.0051366813 0.06929549 0.056261227 -0.050530225 0.2624476 0.0040768622 0.032619733
0.13391638 -0.051217824 -0.03941666 0.026059045 -0.00467166 0.07232017 0.018943444 -0.038531177
0.20148295 0.022352591 -0.100619845 0.12250216 -0.03160722 0.15401146 -0.0472992 0.045389622
0.16442937 0.027127307 0.21930268 0.03251644 -0.004377397 -0.023916995 0.2298941 -0.009383439
-0.023791514 -0.06254121 -0.0026829827 0.04538355 -0.0883917 -0.120543875 -0.035731927 -0.029844226
0.15037975 0.04197834 -0.019205304 -0.020803995 -0.07176395 -0.0265216 0.028256679 -0.012185394
-0.027133768 -0.019808862 -0.00364007 0.38517922 0.015082053 -0.03198101 0.29506963 0.039223354
-0.042693265 0.14355467 -0.02516804 -0.15342937 -0.04136865 0.13894114 0.037220385 0.03171907
00000000: ecde 16bd 9b51 a83b cbea 8d3d 2c72 663d
00000010: c8f8 4ebd 885f 863e 3397 853b 459c 053d
00000020: 6021 093e c8c9 51bd 5d73 21bd c779 d53c
00000030: b914 99bb 991c 943d 482f 9b3c ded2 1dbd
00000040: 8c51 4e3e c81c b73c c711 cebd 6ae2 fa3d
00000050: 9376 01bd 2eb5 1d3e cebc 41bd 78ea 393d
00000060: 2c60 283e 163a de3c e290 603e f52f 053d
00000070: 4470 8fbb 93ed c3bc 5c69 6b3e ffbc 19bc
00000080: 6ce6 c2bc 9b15 80bd fbd4 2fbb 1ae4 393d
00000090: b506 b5bd b5df f6bd a45b 12bd e17b f4bc
000000a0: 26fd 193e 7bf1 2b3d 7154 9dbc 246d aabc
000000b0: faf8 92bd d443 d9bc 8d7a e73c 3fa5 47bc
000000c0: a347 debc 3246 a2bc 3e8e 6ebb 3636 c53e
000000d0: b71a 773c 85fe 02bd 5e13 973e aba8 203d
000000e0: 22df 2ebd ffff 123e 352d cebc 971c 1dbe
000000f0: 2c72 29bd 9646 0e3e 6774 183d dbeb 013d

scratch.refinenet1.resConfUnit2.conv2.bias f4 [64]
-0.11419092 -0.1994312 0.30162302 0.0045599616 0.31797102 -0.3233738 -0.0120882075 0.17547134
-0.053591963 0.13114221 0.25945044 0.00776462 -0.077211484 -0.11248446 -0.19490096 -0.026423624
0.06278972 -0.18212792 0.06008497 0.12220782 0.06096298 -0.15459739 0.33579302 -0.2033874
-0.07110278 0.2089718 0.01647925 -0.31499296 -0.13356362 0.30416793 -0.3965906 -0.093609005
-0.25476247 -0.057570305 -0.039823323 -0.26233226 0.057579927 -0.13127193 -0.18623565 -0.31515867
0.3168782 -0.04819598 -0.05382494 0.31151825 0.123532474 0.08405534 -0.06548712 0.1514808
-0.101119205 0.02767492 -0.3057984 0.13685358 -0.23796692 -0.024383772 0.042743687 -0.040124748
-0.052333284 0.04129966 -0.24611622 0.20013678 0.033826444 0.080486566 0.22964074 -0.23588446
00000000: eedc e9bd b137 4cbe 556e 9a3e bb6b 953b
00000010: 19cd a23e 4091 a5be 9e0d 46bc c2ae 333e
00000020: 3f83 5bbd 254a 063e b0d6 843e 5a6e fe3b
00000030: 0e21 9ebd 415e e6bd 1e94 47be 5b76 d8bc
00000040: e697 803d be7f 3abe a81b 763d 1848 fa3d
00000050: 51b4 793d c74e 1ebe 10ed ab3e c944 50be
00000060: 569e 91bd b4fc 553e 7eff 863c c246 a1be
00000070: e7c4 08be e6bb 9b3e ec0d cbbe 14b6 bfbd
00000080: 3a70 82be d7ce 6bbd c81d 23bd 6a50 86be
00000090: eed8 6b3d 266c 06be 8fb4 3ebe 7a5c a1be
000000a0: dc3d a23e 2669 45bd 8a77 5cbd 527f 9f3e
000000b0: 98fe fc3d 3525 ac3d 1c1e 86bd c81d 1b3e
000000c0: 9617 cfbd 84b6 e23c 9c91 9cbe 5823 0c3e
000000d0: 9aad 73be 7ac0 c7bc 0114 2f3d d959 24bd
000000e0: 6d5b 56bd d529 293d e405 7cbe a8f0 4c3e
000000f0: 998d 0a3d 24d6 a43d f126 6b3e b28b 71be

scratch.output_conv.0.bias f4 [32]
0.06827506 0.104174085 -0.1086158 -0.049565874 -0.0047494643 -0.15788636 0.17033917 -0.11699066
-0.23484522 0.009202821 -0.019473474 0.058290277 -0.038029112 -0.43752518 0.038158655 -0.35462546
0.1109941 -0.21163817 0.16017787 0.11534849 -0.01550948 -0.034556106 0.059912488 -0.116249196
0.07646187 0.010951796 -0.13278903 0.46127748 0.012401102 0.27880487 0.058987744 -0.095726855
00000000: cbd3 8b3d 3959 d53d f671 debd 9605 4bbd
00000010: 65a1 9bbb f6ac 21be 646d 2e3e cd98 efbd
00000020: 447b 70be 6ec7 163c d686 9fbc c9c1 6e3d
00000030: 6ac4 1bbd 4d03 e0be 404c 1c3d 7891 b5be
00000040: e050 e33d adb7 58be ab05 243e d43b ec3d
00000050: 791b 7ebc b48a 0dbd cc66 753d 0f14 eebd
00000060: 0a98 9c3d 296f 333c d9f9 07be 902c ec3e
00000070: fe2d 4b3c 83bf 8e3e 229d 713d 710c c4bd

scratch.output_conv.2.bias f4 [32]
-0.07454118 -0.0028117355 0.015469897 0.29643646 0.20469235 0.05788631 0.1949187 -0.38083985
0.023235535 0.30319518 0.06584716 0.0026607146 -0.2402984 0.08092488 0.41500652 0.24556977
0.015519996 0.49800584 0.38867533 0.4751803 0.5624809 0.06557591 -0.026222026 0.50511235
0.20415297 0.1981763 -0.11874648 -0.031632185 -0.05585479 0.00014998163 -0.024895372 0.100290455
00000000: 0ca9 98bd 1845 38bb 7375 7d3c 85c6 973e
00000010: df9a 513e 321a 6d3d c598 473e 71fd c2be
00000020: 7358 be3c 663c 9b3e e0da 863d 625f 2e3b
00000030: c910 76be f2bb a53d bc7b d43e a476 7b3e
00000040: 9547 7e3c 9ffa fe3e 7400 c73e d54a f33e
00000050: c0fe 0f3f aa4c 863d 93cf d6bc 0b4f 013f
00000060: 7a0d 513e baee 4a3e 5b31 f3bd c090 01bd
00000070: fec7 64bd 6344 1d39 61f1 cbbc 1565 cd3d

scratch.output_conv.4.weight f4 [1, 32, 1, 1]
0.15865056 0.13470903 0.14224781 0.08465435 0.10028526 0.08837486 0.08418595 -0.103271335
0.046883997 0.06699524 0.07601144 -0.13073169 -0.07907818 0.050334964 0.07698997 0.12429626
0.08078548 0.15168586 0.06788177 0.12472079 0.12268048 -0.31863925 -0.16486154 0.1021234
0.089782745 0.096116595 -0.16916965 0.25385812 -0.09452902 -0.15777045 -0.03412491 0.17157759
00000000: 4b75 223e 2af1 093e 69a9 113e 435f ad3d
00000010: 5c62 cd3d e1fd b43d af69 ac3d ec7f d3bd
00000020: 6f09 403d cd34 893d e3ab 9b3d 87de 05be
00000030: bef3 a1bd 092c 4e3d ebac 9d3d 0a8f fe3d
00000040: dc72 a53d 8a53 1b3e 9905 8b3d 9d6d ff3d
00000050: e73f fb3d af24 a3be 77d1 28be 1326 d13d
00000060: 04e0 b73d c7d8 c43d cf3a 2dbe b1f9 813e
00000070: 6e98 c1bd 948e 21be 90c6 0bbd 09b2 2f3e

pretrained.layer1.0.weight_bias f4 [32]
2.7699971 -7.261357 2.2824173 2.9553063 -3.4651694 2.8755133 -7.981116 -1.8540233
3.2313206 3.0864947 0.61988807 3.0292134 2.7045622 2.821289 2.7803762 2.8197343
-3.5048363 -3.2021525 -8.095009 2.982488 3.0086615 -0.05230415 -4.606864 2.6837661
3.3400972 2.6205347 2.4822922 2.9514427 -3.0169978 -4.90455 3.102251 2.8558924
00000000: a247 3140 095d e8c0 2013 1240 bd23 3d40
00000010: 56c5 5dc0 6908 3840 4d65 ffc0 a350 edbf
00000020: f5cd 4e40 2189 4540 fcb0 1e3f a2de 4140
00000030: 8c17 2d40 0090 3440 aff1 3140 8776 3440
00000040: 3d4f 60c0 11f0 4cc0 2885 01c1 15e1 3e40
00000050: e98d 4040 e03c 56bd 6e6b 93c0 d3c2 2b40
00000060: 27c4 5540 d7b6 2740 e0dd 1e40 70e4 3c40
00000070: 7e16 41c0 13f2 9cc0 488b 4640 f1c6 3640

pretrained.layer1.3.0.conv_dw.weight_bias f4 [32]
-0.14004016 -4.117996 0.05946088 -0.09167743 -0.029488042 5.7913446 -5.0992618 -1.1154552
2.5767388 6.2973747 -0.061808586 2.749626 2.1082006 2.736438 6.047302 5.8835382
0.19424762 0.11018193 -3.1455393 2.7546077 0.16980529 6.1469297 -2.1475067 2.8143137
1.0484482 0.13549924 0.14926982 5.631185 0.040374964 1.6193306 -0.8439145 -0.028135538
00000000: b066 0fbe a0c6 83c0 408d 733d 60c1 bbbd
00000010: e890 f1bc b252 b940 272d a3c0 3cc7 8ebf
00000020: 4ae9 2440 1884 c940 002b 7dbd dff9 2f40
00000030: c2ec 0640 cd21 2f40 7f83 c140 f245 bc40
00000040: d9e8 463e 10a7 e13d 8450 49c0 7e4b 3040
00000050: 70e1 2d3e a6b3 c440 c070 09c0 b71d 3440
00000060: 8d33 863f 50c0 0a3e 30da 183e ab32 b440
00000070: 3860 253d 3a46 cf3f c80a 58bf 807c e6bc

pretrained.layer1.3.0.conv_pw.weight_bias f4 [24]
-13.170761 -13.275466 -15.211432 -1.1683273 19.154917 -12.3455305 0.046954878 21.82448
-25.495771 -1.6701982 -6.4822536 -9.19602 -1.8399603 21.185112 20.16273 -3.2284415
2.0299008 27.58767 -8.681977 12.589045 22.740822 -9.250743 9.68799 -13.949007
00000000: 70bb 52c1 4f68 54c1 0762 73c1 c08b 95bf
00000010: 453d 9941 4b87 45c1 c253 403d 8998 ae41
00000020: 57f7 cbc1 0ec9 d5bf 9f6e cfc0 e622 13c1
00000030: d283 ebbf 1c7b a941 454d a141 c99e 4ec0
00000040: e5e9 0140 8cb3 dc41 61e9 0ac1 ba6c 4941
00000050: 34ed b541 0b03 14c1 0202 1b41 222f 5fc1

pretrained.layer1.4.0.conv_pwl.weight_bias f4 [32]
-6.0080395 -6.314756 4.1842976 2.7491739 8.597967 1.1488469 -0.23301972 -1.5764841
1.2030941 2.6555645 2.9234948 -15.330562 -3.2531533 -5.7779574 12.906574 5.412982
-25.920313 13.893969 -0.22407314 -10.209907 0.8055181 10.079866 12.926924 19.593143
1.1285744 1.8183202 1.6857319 17.195225 -28.536526 4.5862246 -11.49103 -0.13368109
00000000: dc41 c0c0 7b12 cac0 c4e5 8540 77f2 2f40
00000010: 4691 0941 6a0d 933f b99c 6ebe 3bca c9bf
00000020: fdfe 993f c5f4 2940 8a1a 3b40 fb49 75c1
00000030: aa33 50c0 07e5 b8c0 5481 4e41 2637 ad40
00000040: cd5c cfc1 b24d 5e41 6e73 65be c75b 23c1
00000050: 6f36 4e3f 2247 2141 aed4 4e41 c2be 9c41
00000060: 2075 903f b7be e83f 10c6 d73f d28f 8941
00000070: ce4a e4c1 5ac2 9240 42db 37c1 b2e3 08be

pretrained.layer1.4.1.conv_pwl.weight_bias f4 [32]
6.182443 -6.090143 1.9851255 5.3052516 -0.067233324 -7.9985847 4.68946 -1.291234
7.643282 -8.849703 -4.777049 4.105935 -5.414342 -5.5092793 -13.792221 8.976431
-0.5414058 1.4014153 -0.9682362 -2.5456247 -9.024912 -0.92133445 6.173449 -2.878123
-12.45327 9.096529 -2.0081449 2.3640475 3.643132 -1.3923311 4.0677977 -2.7321348
00000000: 93d6 c540 74e2 c2c0 9818 fe3f 9fc4 a940
00000010: a0b1 89bd 68f4 ffc0 0e10 9640 2847 a5bf
00000020: c495 f440 6298 0dc1 96dd 98c0 d263 8340
00000030: 4a42 adc0 044c b0c0 f0ac 5cc1 769f 0f41
00000040: 9299 0abf 9461 b33f 54de 77bf 84eb 22c0
00000050: 0a66 10c1 93dc 6bbf e58c c540 2b33 38c0
00000060: 9840 47c1 628b 1141 7285 00c0 8e4c 1740
00000070: 1329 6940 e837 b2bf 662b 8240 4cdb 2ec0

pretrained.layer1.4.2.conv_pwl.weight_bias f4 [32]
0.46151432 -4.030345 0.13249469 10.462294 -1.6381774 13.68264 -1.7173645 -1.6238307
4.294134 0.60153675 2.9753823 1.4310653 11.463933 2.2933238 -1.2011719 8.620874
0.6946661 -1.0443614 1.4393747 -0.2563098 4.807505 -2.4236183 -1.1626759 -1.547285
-0.5931499 4.4614663 6.2196345 -3.1545162 -2.025355 0.042217672 -12.773893 -2.6385922
00000000: 9b4b ec3e 96f8 80c0 b0ac 073e 8e65 2741
00000010: ccaf d1bf 18ec 5a41 9ad2 dbbf afd9 cfbf
00000020: 8c69 8940 50fe 193f aa6c 3e40 262d b73f
00000030: 456c 3741 d1c5 1240 00c0 99bf 1aef 0941
00000040: a3d5 313f a2ad 85bf 6e3d b83f 0a3b 83be
00000050: 15d7 9940 901c 1bc0 90d2 94bf 6f0d c6bf
00000060: acd8 17bf 55c4 8e40 3f07 c740 98e3 49c0
00000070: 6b9f 01c0 70ec 2c3d de61 4cc1 b2de 28c0

pretrained.layer2.0.0.conv_pwl.weight_bias f4 [48]
-14.47575 11.251968 16.641653 -22.668842 -3.4223778 -0.95833915 -12.829759 21.070784
-1.2145231 -10.076739 12.522974 6.707813 17.366653 9.543028 13.252482 15.006814
22.864616 14.792463 -19.948427 0.21851118 29.932459 12.152855 15.350206 -9.971052
-10.180434 -6.3917584 11.740253 -17.042694 7.3054276 0.36658034 12.103567 9.862443
23.874708 -10.053666 8.421739 0.2503845 -2.801728 -15.971726 -10.861974 -8.7250185
10.936515 12.131306 -26.399115 2.4889493 10.936912 -30.823061 -25.23151 4.610232
00000000: ac9c 67c1 1008 3441 1b22 8541 ca59 b5c1
00000010: 3d08 5bc0 b755 75bf b146 4dc1 f790 a841
00000020: 7e75 9bbf 533a 21c1 1a5e 4841 67a6 d640
00000030: e8ee 8a41 3eb0 1841 2b0a 5441 e91b 7041
00000040: bcea b641 eead 6c41 6196 9fc1 65c1 5f3e
00000050: ad75 ef41 1872 4241 729a 7541 6e89 1fc1
00000060: 0fe3 22c1 4989 ccc0 14d8 3b41 7057 88c1
00000070: 10c6 e940 6bb0 bb3e 36a8 4141 91cc 1d41
00000080: 67ff be41 d1db 20c1 71bf 0641 6632 803e
00000090: 834f 33c0 318c 7fc1 a5ca 2dc1 ad99 0bc1
000000a0: f7fb 2e41 d419 4241 6331 d3c1 f24a 1f40
000000b0: 97fd 2e41 a195 f6c1 22da c9c1 0587 9340

pretrained.layer2.0.1.conv_pwl.weight_bias f4 [48]
-0.6691851 -1.3713855 2.3994234 1.6625531 -0.7654651 2.8830748 0.5467168 0.9433589
-0.0009545088 2.19735 3.975158 -4.5788755 0.36449116 -0.2880297 -1.2744579 4.6818514
1.326658 3.340423 -7.8266287 -0.10695267 -2.6190498 1.6333134 3.063892 -1.4177887
-0.54596555 -1.57358 3.9963822 -3.2370348 5.6546702 -1.9426115 -2.385562 -0.6949141
2.5338511 2.9848337 -0.74588275 -0.18226254 -0.4415576 -0.30819365 1.0787067 3.4264233
0.6722411 0.42997378 -6.9954786 0.31359038 -4.466054 -1.0230775 3.0912037 -0.93081236
00000000: b74f 2bbf 8f89 afbf 2790 1940 8ace d43f
00000010: 85f5 43bf 4c84 3840 a2f5 0b3f f87f 713f
00000020: 0038 7aba 62a1 0c40 fd68 7e40 2686 92c0
00000030: 969e ba3e a178 93be 7021 a3bf bad1 9540
00000040: eecf a93f 7ec9 5540 be73 fac0 000a dbbd
00000050: 839e 27c0 6a10 d13f ce16 4440 1a7a b5bf
00000060: 66c4 0bbf 126b c9bf bac4 7f40 942b 4fc0
00000070: 0ff3 b440 7ea7 f8bf 0cad 18c0 e4e5 31bf
00000080: 9e2a 2240 8407 3f40 2cf2 3ebf 08a3 3abe
00000090: d613 e2be 8fcb 9dbe 1013 8a3f 854a 5b40
000000a0: fe17 2c3f 8625 dc3e f6da dfc0 eb8e a03e
000000b0: eae9 8ec0 34f4 82bf 48d6 4540 b849 6ebf

pretrained.layer2.0.2.conv_pwl.weight_bias f4 [48]
-2.5721862 0.024012655 -0.30088633 2.6295056 1.2447426 2.9126005 4.109367 8.41706
3.836215 4.3331594 2.984904 6.2718697 -8.204296 0.8179382 0.59557736 6.1200466
0.92492604 2.6934566 -13.790542 -3.7691069 0.04186046 -3.0714936 -1.2946568 -0.1686707
3.2024453 -0.41096237 0.89022195 -1.437061 3.9287832 -0.07505226 -0.30048382 0.38600278
-3.640249 -1.7033224 1.6658438 -4.99949 -1.1879137 -0.9321426 -2.830645 1.6563506
-4.6302805 2.5527596 -8.23706 2.5913415 3.3472376 -2.5382247 -3.1299129 7.577093
00000000: b39e 24c0 30b6 c43c c60d 9abe d249 2840
00000010: ba53 9f3f 0c68 3a40 ef7f 8340 47ac 0641
00000020: 8c84 7540 3ea9 8a40 ab08 3f40 28b3 c840
00000030: cc44 03c1 6664 513f c277 183f 6cd7 c340
00000040: f4c7 6c3f 9861 2c40 0fa6 5cc1 0c39 71c0
00000050: e075 2b3d 5a93 44c0 50b7 a5bf 03b8 2cbe
00000060: ddf4 4c40 a969 d2be 96e5 633f 9df1 b7bf
00000070: 2f71 7b40 00b5 99bd 04d9 99be 28a2 c53e
00000080: d7f9 68c0 7806 dabf 5f3a d53f d2fb 9fc0
00000090: 8e0d 98bf e6a0 6ebf 4a29 35c0 4c03 d43f
000000a0: 422b 94c0 6a60 2340 ffca 03c1 8ad8 2540
000000b0: 2439 5640 4672 22c0 7e50 48c0 8c77 f240

val_825 f4 [4]
1.0 1.0 2.0 2.0
00000000: 0000 803f 0000 803f 0000 0040 0000 0040
